…
2023-10-25 14:18:28,872 [memo_cifar_resnet.py] => Resnet Basic block input: inplanes: 16; planes: 16, strides: 1, downsample: None
2023-10-25 14:18:28,872 [memo_cifar_resnet.py] => Resnet Basic block input: inplanes: 16; planes: 16, strides: 1, downsample: None
2023-10-25 14:18:28,872 [memo_cifar_resnet.py] => Resnet Basic block input: inplanes: 16; planes: 16, strides: 1, downsample: None
2023-10-25 14:18:28,873 [memo_cifar_resnet.py] => Resnet Basic block input: inplanes: 16; planes: 16, strides: 1, downsample: None
2023-10-25 14:18:28,873 [memo_cifar_resnet.py] => Structure of stage 1 is: Sequential(
  (0): ResnetBasicblock(
    (conv_a): Conv2d(16, 16, kernel_size=(3, 3), stride=(1, 1), padding=(1, 1), bias=False)
    (bn_a): BatchNorm2d(16, eps=1e-05, momentum=0.1, affine=True, track_running_stats=True)
    (conv_b): Conv2d(16, 16, kernel_size=(3, 3), stride=(1, 1), padding=(1, 1), bias=False)
    (bn_b): BatchNorm2d(16, eps=1e-05, momentum=0.1, affine=True, track_running_stats=True)
  )
  (1): ResnetBasicblock(
    (conv_a): Conv2d(16, 16, kernel_size=(3, 3), stride=(1, 1), padding=(1, 1), bias=False)
    (bn_a): BatchNorm2d(16, eps=1e-05, momentum=0.1, affine=True, track_running_stats=True)
    (conv_b): Conv2d(16, 16, kernel_size=(3, 3), stride=(1, 1), padding=(1, 1), bias=False)
    (bn_b): BatchNorm2d(16, eps=1e-05, momentum=0.1, affine=True, track_running_stats=True)
  )
  (2): ResnetBasicblock(
    (conv_a): Conv2d(16, 16, kernel_size=(3, 3), stride=(1, 1), padding=(1, 1), bias=False)
    (bn_a): BatchNorm2d(16, eps=1e-05, momentum=0.1, affine=True, track_running_stats=True)
    (conv_b): Conv2d(16, 16, kernel_size=(3, 3), stride=(1, 1), padding=(1, 1), bias=False)
    (bn_b): BatchNorm2d(16, eps=1e-05, momentum=0.1, affine=True, track_running_stats=True)
  )
  (3): ResnetBasicblock(
    (conv_a): Conv2d(16, 16, kernel_size=(3, 3), stride=(1, 1), padding=(1, 1), bias=False)
    (bn_a): BatchNorm2d(16, eps=1e-05, momentum=0.1, affine=True, track_running_stats=True)
    (conv_b): Conv2d(16, 16, kernel_size=(3, 3), stride=(1, 1), padding=(1, 1), bias=False)
    (bn_b): BatchNorm2d(16, eps=1e-05, momentum=0.1, affine=True, track_running_stats=True)
  )
  (4): ResnetBasicblock(
    (conv_a): Conv2d(16, 16, kernel_size=(3, 3), stride=(1, 1), padding=(1, 1), bias=False)
    (bn_a): BatchNorm2d(16, eps=1e-05, momentum=0.1, affine=True, track_running_stats=True)
    (conv_b): Conv2d(16, 16, kernel_size=(3, 3), stride=(1, 1), padding=(1, 1), bias=False)
    (bn_b): BatchNorm2d(16, eps=1e-05, momentum=0.1, affine=True, track_running_stats=True)
  )
)
2023-10-25 14:18:28,873 [memo_cifar_resnet.py] => Resnet Basic block input: inplanes: 16; planes: 32, strides: 2, downsample: DownsampleA(
  (avg): AvgPool2d(kernel_size=1, stride=2, padding=0)
)
2023-10-25 14:18:28,874 [memo_cifar_resnet.py] => Resnet Basic block input: inplanes: 32; planes: 32, strides: 1, downsample: None
2023-10-25 14:18:28,874 [memo_cifar_resnet.py] => Resnet Basic block input: inplanes: 32; planes: 32, strides: 1, downsample: None
2023-10-25 14:18:28,874 [memo_cifar_resnet.py] => Resnet Basic block input: inplanes: 32; planes: 32, strides: 1, downsample: None
2023-10-25 14:18:28,875 [memo_cifar_resnet.py] => Resnet Basic block input: inplanes: 32; planes: 32, strides: 1, downsample: None
2023-10-25 14:18:28,875 [memo_cifar_resnet.py] => Structure of stage 2 is: Sequential(
  (0): ResnetBasicblock(
    (conv_a): Conv2d(16, 32, kernel_size=(3, 3), stride=(2, 2), padding=(1, 1), bias=False)
    (bn_a): BatchNorm2d(32, eps=1e-05, momentum=0.1, affine=True, track_running_stats=True)
    (conv_b): Conv2d(16, 32, kernel_size=(3, 3), stride=(1, 1), padding=(1, 1), bias=False)
    (bn_b): BatchNorm2d(32, eps=1e-05, momentum=0.1, affine=True, track_running_stats=True)
    (downsample): DownsampleA(
      (avg): AvgPool2d(kernel_size=1, stride=2, padding=0)
    )
  )
  (1): ResnetBasicblock(
    (conv_a): Conv2d(32, 32, kernel_size=(3, 3), stride=(1, 1), padding=(1, 1), bias=False)
    (bn_a): BatchNorm2d(32, eps=1e-05, momentum=0.1, affine=True, track_running_stats=True)
    (conv_b): Conv2d(32, 32, kernel_size=(3, 3), stride=(1, 1), padding=(1, 1), bias=False)
    (bn_b): BatchNorm2d(32, eps=1e-05, momentum=0.1, affine=True, track_running_stats=True)
  )
  (2): ResnetBasicblock(
    (conv_a): Conv2d(32, 32, kernel_size=(3, 3), stride=(1, 1), padding=(1, 1), bias=False)
    (bn_a): BatchNorm2d(32, eps=1e-05, momentum=0.1, affine=True, track_running_stats=True)
    (conv_b): Conv2d(32, 32, kernel_size=(3, 3), stride=(1, 1), padding=(1, 1), bias=False)
    (bn_b): BatchNorm2d(32, eps=1e-05, momentum=0.1, affine=True, track_running_stats=True)
  )
  (3): ResnetBasicblock(
    (conv_a): Conv2d(32, 32, kernel_size=(3, 3), stride=(1, 1), padding=(1, 1), bias=False)
    (bn_a): BatchNorm2d(32, eps=1e-05, momentum=0.1, affine=True, track_running_stats=True)
    (conv_b): Conv2d(32, 32, kernel_size=(3, 3), stride=(1, 1), padding=(1, 1), bias=False)
    (bn_b): BatchNorm2d(32, eps=1e-05, momentum=0.1, affine=True, track_running_stats=True)
  )
  (4): ResnetBasicblock(
    (conv_a): Conv2d(32, 32, kernel_size=(3, 3), stride=(1, 1), padding=(1, 1), bias=False)
    (bn_a): BatchNorm2d(32, eps=1e-05, momentum=0.1, affine=True, track_running_stats=True)
    (conv_b): Conv2d(32, 32, kernel_size=(3, 3), stride=(1, 1), padding=(1, 1), bias=False)
    (bn_b): BatchNorm2d(32, eps=1e-05, momentum=0.1, affine=True, track_running_stats=True)
  )
)
2023-10-25 14:18:28,879 [memo_cifar_resnet.py] => Resnet Basic block input: inplanes: 32; planes: 64, strides: 2, downsample: DownsampleA(
  (avg): AvgPool2d(kernel_size=1, stride=2, padding=0)
)
2023-10-25 14:18:28,879 [memo_cifar_resnet.py] => Resnet Basic block input: inplanes: 64; planes: 64, strides: 1, downsample: None
…
2023-10-25 14:18:28,895 [memo_cifar_resnet.py] => Resnet Basic block input: inplanes: 64; planes: 64, strides: 1, downsample: None
2023-10-25 14:18:28,896 [memo_cifar_resnet.py] => Resnet Basic block input: inplanes: 64; planes: 64, strides: 1, downsample: None
2023-10-25 14:18:28,897 [memo_cifar_resnet.py] => Resnet Basic block input: inplanes: 64; planes: 64, strides: 1, downsample: None
2023-10-25 14:18:28,898 [memo_cifar_resnet.py] => Resnet Basic block input: inplanes: 64; planes: 64, strides: 1, downsample: None
2023-10-25 14:18:28,903 [inc_net.py] => SpecializedResNet_cifar(
  (final_stage): Sequential(
    (0): ResnetBasicblock(
      (conv_a): Conv2d(32, 64, kernel_size=(3, 3), stride=(2, 2), padding=(1, 1), bias=False)
      (bn_a): BatchNorm2d(64, eps=1e-05, momentum=0.1, affine=True, track_running_stats=True)
      (conv_b): Conv2d(32, 64, kernel_size=(3, 3), stride=(1, 1), padding=(1, 1), bias=False)
      (bn_b): BatchNorm2d(64, eps=1e-05, momentum=0.1, affine=True, track_running_stats=True)
      (downsample): DownsampleA(
        (avg): AvgPool2d(kernel_size=1, stride=2, padding=0)
      )
    )
    (1): ResnetBasicblock(
      (conv_a): Conv2d(64, 64, kernel_size=(3, 3), stride=(1, 1), padding=(1, 1), bias=False)
      (bn_a): BatchNorm2d(64, eps=1e-05, momentum=0.1, affine=True, track_running_stats=True)
      (conv_b): Conv2d(64, 64, kernel_size=(3, 3), stride=(1, 1), padding=(1, 1), bias=False)
      (bn_b): BatchNorm2d(64, eps=1e-05, momentum=0.1, affine=True, track_running_stats=True)
    )
    (2): ResnetBasicblock(
      (conv_a): Conv2d(64, 64, kernel_size=(3, 3), stride=(1, 1), padding=(1, 1), bias=False)
      (bn_a): BatchNorm2d(64, eps=1e-05, momentum=0.1, affine=True, track_running_stats=True)
      (conv_b): Conv2d(64, 64, kernel_size=(3, 3), stride=(1, 1), padding=(1, 1), bias=False)
      (bn_b): BatchNorm2d(64, eps=1e-05, momentum=0.1, affine=True, track_running_stats=True)
    )
    (3): ResnetBasicblock(
      (conv_a): Conv2d(64, 64, kernel_size=(3, 3), stride=(1, 1), padding=(1, 1), bias=False)
      (bn_a): BatchNorm2d(64, eps=1e-05, momentum=0.1, affine=True, track_running_stats=True)
      (conv_b): Conv2d(64, 64, kernel_size=(3, 3), stride=(1, 1), padding=(1, 1), bias=False)
      (bn_b): BatchNorm2d(64, eps=1e-05, momentum=0.1, affine=True, track_running_stats=True)
    )
    (4): ResnetBasicblock(
      (conv_a): Conv2d(64, 64, kernel_size=(3, 3), stride=(1, 1), padding=(1, 1), bias=False)
      (bn_a): BatchNorm2d(64, eps=1e-05, momentum=0.1, affine=True, track_running_stats=True)
      (conv_b): Conv2d(64, 64, kernel_size=(3, 3), stride=(1, 1), padding=(1, 1), bias=False)
      (bn_b): BatchNorm2d(64, eps=1e-05, momentum=0.1, affine=True, track_running_stats=True)
    )
  )
  (avgpool): AvgPool2d(kernel_size=8, stride=8, padding=0)
)
2023-10-25 14:18:28,904 [memo.py] => Learning on 0-5
2023-10-25 14:18:28,905 [memo.py] => All params: 440464
2023-10-25 14:18:28,905 [memo.py] => Trainable params: 440464
2023-10-25 14:18:28,916 [trainer.py] => current task is: 0
